data.pth (torch, 5143 bytes, 6 tensors)

l1.weight f4 [8, 53]
000000 fb bc d6 be 22 0e b5 3e 9e 14 74 3e 91 46 56 be
       -0.41941056 0.35362345 0.2383599 -0.20925356
000010 b8 06 71 3e 0d 7c 07 bf 59 ad 32 3f b3 d7 fe be
       0.23537719 -0.5292366 0.6979576 -0.4977394
000020 74 5a 04 3f b7 1a 03 3f 8e 11 a3 3e 28 63 f8 be
       0.5170052 0.5121264 0.3184933 -0.4851315
000030 4e db 14 bf e1 c3 f8 3e b8 2a 6e 3f b0 ec ed 3e
       -0.5814713 0.48586944 0.93033934 0.4646964
000040 7a ac 26 3f 43 02 b6 be e4 d2 f4 be de 0a f3 3e
       0.6510693 -0.355486 -0.47817147 0.47469229
000050 a3 10 55 bf 7c 13 b3 3e ea cf 4c bf 1c 3e 49 bf
       -0.8322851 0.34975803 -0.8000475 -0.78610396
000060 ba 67 ec 3d 3d b0 38 3f 80 59 8a 3e ce 31 8a 3e
       0.11543222 0.7214392 0.27021408 0.26991123
000070 1f ab 69 be c6 4a 46 3f 3f 5b 02 be ab 5e 4a 3f
       -0.22819184 0.77457845 -0.1273012 0.790507
000080 dc e1 63 3e 5b ee 87 3e 77 a5 2d 3f 70 d3 00 3f
       0.22254127 0.26549038 0.67830604 0.5032263
000090 29 fc 7e 3f 74 5e ee 3d d5 a3 5c 3f 63 a4 bf 3d
       0.99603516 0.11639109 0.8618749 0.09357526
0000a0 da 31 56 3e a7 45 87 be 3c 99 6d 3f 47 87 20 3f
       0.20917454 -0.26420328 0.9281194 0.62706417
0000b0 a8 93 01 3f 55 04 32 bf c3 00 b3 be 4b c0 a4 be
       0.5061593 -0.6953786 -0.3496152 -0.32177958
0000c0 fa 6c f3 3e 03 f5 08 3f 1f 5e 0c 3f 8e 39 12 3e
       0.4754408 0.5349886 0.5483112 0.14279768
0000d0 b1 89 96 3d 8a b8 00 3f 0f 9b f5 3e 56 ed 79 be
       0.07350481 0.50281584 0.47969863 -0.24406943
0000e0 e1 3e f2 3e af 90 38 bd 8e 72 34 3f 2e 8d 96 be
       0.47313598 -0.045059856 0.70487297 -0.29404587
0000f0 87 59 4d be c4 7f 01 bf c0 4d 76 3e ef 14 84 3e
       -0.20053683 -0.5058558 0.24053097 0.2579722
000100 88 f7 f9 3e 45 72 99 3f ab 0c 1f be 3b ea 3b 3f
       0.48821664 1.1987997 -0.15532176 0.7340428
000110 63 c7 f3 3e d1 86 48 3e 23 eb f1 3e 2b 4c 2c be
       0.47613057 0.19582678 0.47249708 -0.16825931
000120 15 0d ff 3d a9 51 32 3f a5 c7 33 be bd 93 28 3f
       0.12453667 0.69655854 -0.17556627 0.6585043
000130 fb aa 42 3f 87 12 9a 3e 6a 79 93 be 5d 52 52 3f
       0.76042145 0.3009226 -0.2880357 0.82156926
000140 9d fb 39 be 00 2c 65 3e 08 fc 0d bf 9e 68 49 3d
       -0.18162389 0.22380066 -0.55462694 0.049172036
000150 c3 ba ab be 40 8d 58 3f 5d 6f 92 3e d5 91 9b be
       -0.33540925 0.8459053 0.28600588 -0.303847
000160 9c 88 ad 3e c6 32 63 be 41 d8 46 be cc a0 63 3f
       0.33893287 -0.22187337 -0.19418432 0.8891723
000170 90 60 4f 3f c8 d5 08 bd 63 eb 50 bd c3 2d 39 3f
       0.8100672 -0.033407003 -0.051005732 0.7233545
000180 d3 ef 78 3d 9b 32 4d 3e c1 7e 5d 3f 7a 67 fe 3e
       0.06077559 0.20038836 0.86521536 0.4968832
000190 81 4c b0 3e 3d 3b 45 3e 14 34 96 bd 10 48 83 3e
       0.34433368 0.19260879 -0.07334152 0.25640917
0001a0 1f 1e b8 3d b8 6f bf be c8 8e cb 3e d6 66 17 3e
       0.0899012 -0.37389922 0.3975737 0.14785323
0001b0 4f 12 64 be 13 aa 2d be 84 85 ac 3d bf e5 ae be
       -0.22272609 -0.1695941 0.084239036 -0.34159657
0001c0 ca ed 09 3f f9 e7 4a 3f 25 88 9c be e4 14 d0 bc
       0.5387846 0.7926021 -0.3057262 -0.025400586
0001d0 db 92 3f be a2 7e 9a be 62 60 8e 3f ed a0 53 be
       -0.18708365 -0.30174738 1.1123164 -0.20666857
0001e0 cc 91 5c be 23 d9 59 be f2 12 4f ba 83 aa 31 be
       -0.21539992 -0.21274237 -0.00078992464 -0.17350201
0001f0 f7 d2 46 3f ec 58 65 be a9 55 f3 be ce 16 17 3d
       0.77665657 -0.22397202 -0.4752629 0.036886983
000200 53 55 f3 be 65 55 f3 be 65 40 a9 be 00 31 20 3f
       -0.47526035 -0.47526088 -0.33056942 0.6257477
000210 0e ad 1c 3f 5c 94 bb bc 34 2d 57 be 72 59 db be
       0.6120156 -0.022897892 -0.21013337 -0.4284168
000220 8b 09 18 3f 11 ee d7 3e 04 2b 01 3f ba 61 80 3e
       0.5938956 0.42173818 0.5045626 0.2507456
000230 14 17 0b 3f 0c b7 bb bd 07 76 23 be c0 0c 8b 3c
       0.5433209 -0.09165773 -0.15962993 0.016973853
000240 c7 73 29 be 2f d9 f3 3e a7 c0 6b be a3 b5 1b 3f
       -0.16548072 0.47626635 -0.2302271 0.6082403
000250 db 63 c1 bd 33 cb c4 bd 3d c6 19 bc d2 b7 2c 3f
       -0.09442874 -0.0960907 -0.009385643 0.6746799
000260 98 09 ed 3e 0b da be bd 5c d5 6f be 75 9b 7c be
       0.46296382 -0.09318932 -0.23421234 -0.24668677
000270 5b 34 39 bc d0 45 91 3e d7 a8 ab bd d5 d8 e9 3e
       -0.011303986 0.28373575 -0.08381813 0.45673242
000280 39 bd 0a 3f 88 b0 ed 3d a7 02 af 3e 2a 46 9f be
       0.5419498 0.11605936 0.3418171 -0.31108218
000290 57 ee 00 3f b5 2e f7 be 3e f4 a9 3e ec c7 85 3e
       0.5036368 -0.48277822 0.33194155 0.2612909
0002a0 44 f9 62 be a3 de b0 3e 86 ca bc 3e 58 22 9c be
       -0.221654 0.34544858 0.36873263 -0.30494952
0002b0 b7 43 23 3e f7 e8 5c 3f 86 92 b9 3e 7d 53 c6 be
       0.159438 0.86292976 0.362446 -0.38735572
0002c0 fc 06 e6 3e 98 ed 91 3e 3a 79 65 be a6 14 44 3f
       0.44927204 0.28501582 -0.22409526 0.76594007
0002d0 0b 76 08 3f 57 88 49 3f 92 81 26 3f 3c 37 89 3e
       0.5330512 0.78723663 0.6504146 0.26799953
0002e0 bf 2f fc be 80 c9 b6 be a6 80 11 bf e5 66 aa 3e
       -0.49255177 -0.35700607 -0.56836927 0.33281627
0002f0 b4 22 da be 64 05 06 be 3b 62 e4 be 78 3d 95 be
       -0.426046 -0.13087994 -0.44606194 -0.2914846
000300 ed c4 2f 3e 27 7b 07 bf 32 cf 99 be 93 f7 19 3e
       0.17164965 -0.5292229 -0.3004089 0.15035848
000310 43 ca 83 be 1a 60 4b 3f 16 5b a7 be dc e1 05 bf
       -0.2574025 0.79443514 -0.3268668 -0.5229776
000320 8c 16 4c bd e0 89 74 3f 05 07 7d be db 5b ac 3e
       -0.04982619 0.9552288 -0.24709709 0.3366383
000330 01 03 6f 3f 12 62 df 3e ed a1 a8 3e ea fa 80 be
       0.9336396 0.4362951 0.3293604 -0.25191432
000340 a9 66 54 3e 99 d5 9f 3e b9 bb 21 3f de 0e 05 3f
       0.20742287 0.3121765 0.6317707 0.5197581
000350 bb 09 95 3e a9 b2 96 3d c4 ba 4b 3f 5d 33 8e 3e
       0.29108986 0.073582955 0.79581857 0.27773562
000360 fe d7 27 3f 4a 9a 5a 3e 5d 5a 47 3f f5 24 18 bf
       0.6556395 0.21347919 0.7787226 -0.5943139
000370 74 46 17 3f e1 60 ba bd 77 1c 48 bd cb 3e 96 3e
       0.5909188 -0.091005094 -0.04885527 0.29344782
000380 d5 25 f4 be f2 4b 01 3f 98 1e 77 be 39 ed e3 3c
       -0.47685114 0.5050651 -0.24132764 0.027823078
000390 4a 49 4f be e1 df 04 3f ac 8d 14 bf dc a1 25 be
       -0.20242801 0.5190411 -0.58028674 -0.16175026
0003a0 ab 14 0f 3f da bc b1 3e 37 e5 1f 3f 3e 74 3c 3f
       0.5589091 0.34714395 0.6245913 0.7361487
0003b0 b3 f4 d5 3e f8 34 42 3f eb e6 1e be b9 b1 3c 3f
       0.41788253 0.75862074 -0.15517776 0.73708683
0003c0 37 a4 df 3e dc 91 0d be 75 be ab be 8d 6a 24 3f
       0.43679973 -0.13825172 -0.33543745 0.64225084
0003d0 2b 5b 5b be fb aa 5b 3e 7e 58 18 3f 98 74 52 be
       -0.21421497 0.21451943 0.5951003 -0.2055229
0003e0 81 06 47 3e 3e d8 46 3f 97 97 08 be eb b1 7b be
       0.19436075 0.7767371 -0.13339077 -0.24579589
0003f0 3e 91 75 3f e2 cd 8c be 92 78 76 be 20 8c 9b be
       0.95924747 -0.27500826 -0.24069431 -0.30380344

l1.bias f4 [8]
000000 86 76 5e 3f 8d 9a 23 3f c8 55 f3 3e 66 ac 79 3f
       0.868996 0.639077 0.47526383 0.97528684
000010 3a 7c 1d 3f 29 25 0f 3f fb 79 95 3f 21 74 33 3f
       0.6151768 0.55916077 1.167785 0.70099074

l2.weight f4 [8, 8]
000000 bc 2e a3 3f ed 84 f8 3d 44 f8 80 bf d6 3a 9a 3f
       1.2748637 0.121347286 -1.0075765 1.2049205
000010 04 86 14 3e 2b f1 19 bf 52 e9 bb 3f 1b 02 96 bf
       0.14504248 -0.6013362 1.4680579 -1.1719393
000020 ab ad 95 3f ad 1f 85 bf c2 c6 ec 3e f9 8a 8a 3f
       1.1693624 -1.0400292 0.4624539 1.0823661
000030 60 e5 98 3f b3 45 c6 3e 0d 17 ad be 98 c0 c8 3f
       1.1945 0.3872505 -0.3380665 1.5683775
000040 e0 02 52 3f e7 4d ba 3f 60 80 0f bd ed 3f 50 3f
       0.82035637 1.4555024 -0.035034537 0.81347543
000050 52 2e c7 3d 7e c2 bc 3e ac f8 93 bf f7 37 fa bd
       0.09725632 0.36867136 -1.1560264 -0.12217706
000060 f6 60 9d bf bf 26 a1 3f 74 3d a0 3f 42 a7 91 3f
       -1.2295215 1.2589949 1.2518754 1.1379168
000070 b1 22 2e bd 3c b4 d5 3d 46 57 e9 3e 1a 19 b5 3d
       -0.042513553 0.104347676 0.45574397 0.08842678
000080 81 a0 44 3e 10 6a 50 bd d5 94 fd bd a9 22 22 be
       0.19201852 -0.0508824 -0.12381903 -0.15833534
000090 3f e3 b4 be 72 0b ac be 2e 63 ce 3d ea 6f 3e be
       -0.35329625 -0.33602482 0.10077511 -0.1859738
0000a0 8c 66 36 bf 69 83 14 3f 7a 6f a2 bf d9 41 9f 3f
       -0.71250224 0.58013016 -1.269027 1.244197
0000b0 e1 f2 ce 3f b1 4f 9b 3f 5d e5 3f be ca cb c8 3d
       1.6167871 1.2133695 -0.18739839 0.09804495
0000c0 96 55 3a 3d 57 f0 80 3f 38 24 b8 3f 08 b4 00 3f
       0.045491777 1.0073346 1.4386053 0.50274706
0000d0 54 eb 24 bf 08 95 34 bf c0 21 86 3f 75 b7 bf 3f
       -0.6442158 -0.70539904 1.047905 1.4977862
0000e0 39 af 8b 3f 8f 13 d1 3e f0 11 00 3e 53 da a1 bf
       1.0912849 0.40835235 0.12506843 -1.2644752
0000f0 37 5b 98 3f 46 1c 89 3f 09 20 a0 3f b7 2e 67 bf
       1.1902837 1.0711753 1.2509776 -0.90305656

l2.bias f4 [8]
000000 6e 85 74 3f fd 68 82 3e d1 50 0e 3e 23 fd 88 3e
       0.955161 0.25470725 0.13898017 0.26755628
000010 bb ce 9e be 17 a6 06 3e e6 9b 2a be b6 c6 c0 3e
       -0.31017098 0.13149296 -0.16661033 0.37651604

l3.weight f4 [10, 8]
000000 a5 3b 9f bf f8 d6 8d bf af 81 46 3f 4c 18 87 3e
       -1.2440077 -1.1081228 0.7754163 0.26385725
000010 40 12 12 3e af f1 64 be 4d 8a c3 be b8 32 38 3e
       0.14264774 -0.2235782 -0.38191453 0.17988098
000020 ab 96 b8 be d9 92 35 3f 24 4a a0 bf bf d8 c0 bf
       -0.3605245 0.70927197 -1.2522626 -1.5066146
000030 5b 27 94 be ac af 06 bf dd d1 6c 3e 0b bc 9c 3b
       -0.28936276 -0.52611804 0.23126931 0.0047831587
000040 15 7d f2 3e 6e c6 38 3e 0b 10 95 3e bb 17 58 bf
       0.47361055 0.18044445 0.29113802 -0.8441121
000050 50 96 90 be b9 dd 9f be db 9f 8e 3e 20 69 c8 bf
       -0.2823968 -0.31223848 0.27856335 -1.5657082
000060 0e 62 ac 3f 1e d0 40 3d 0b 43 97 3e ff c7 db bf
       1.3467424 0.047073476 0.29543337 -1.7170409
000070 fe 8a 4f be 01 d4 b7 bf e2 22 61 bf c1 80 48 3e
       -0.20267865 -1.4361573 -0.8794385 0.19580366
000080 fd 01 9b bd 00 80 d2 3e 2e e1 e5 bf 90 0d 52 3f
       -0.075687386 0.4111328 -1.7959344 0.82051945
000090 53 a0 85 be 47 15 a1 bf 49 c6 2d 3f e7 ee d6 bf
       -0.2609888 -1.2584618 0.67880684 -1.6791657
0000a0 99 19 fc 3e 63 02 22 bf f2 f8 7e be 37 a6 c8 3e
       0.4923828 -0.6328489 -0.24899653 0.39189312
0000b0 2e 4c 51 3e c6 ee 55 3f 71 25 65 bf bd 51 c0 be
       0.20439216 0.83567464 -0.89510256 -0.3756236
0000c0 50 f0 51 be 08 a6 4d 3f 5f 3c 46 3e 24 2e 89 bf
       -0.20501828 0.8033147 0.19358967 -1.0717206
0000d0 c9 f0 68 be 4d 3b b0 3e c9 62 9e bf 35 15 23 bf
       -0.22748102 0.34420243 -1.2373897 -0.63704234
0000e0 dc ee 8e 3d 3f 3a 0e be 03 1e b8 bf 4f 21 af bf
       0.069791526 -0.13889407 -1.4384159 -1.368204
0000f0 68 9a 87 3c a2 e7 e1 3e 4f 13 ee bf 68 74 32 3f
       0.016553119 0.44122034 -1.8599643 0.6970887
000100 bb 44 b5 bf 67 12 c6 3e b6 5a 36 3e 28 9f 0d 3f
       -1.41616 0.38685915 0.17808041 0.5532098
000110 54 fc 2c 3e 0a 68 e6 3e a1 e5 1c be 5a 60 d9 bf
       0.1689313 0.4500125 -0.15321971 -1.6982529
000120 62 8e d3 3e 55 5a 01 c0 73 dc be bf 66 d7 6c 3e
       0.41319567 -2.0211384 -1.4911026 0.23129043
000130 31 c5 5d 3d 1c fe 70 bf e4 0e 22 3f 33 b9 8a 3d
       0.054143135 -0.9413774 0.6330397 0.06773605

l3.bias f4 [10]
000000 b0 20 4b 3e 07 37 df bd 93 ec 12 bf be ac 34 3f
       0.19836688 -0.108991675 -0.57392234 0.70576084
000010 0d 49 db 3e 57 d9 d7 3c dd b5 be be 43 40 65 be
       0.4282917 0.026348753 -0.37248126 -0.22387795
000020 b2 1c 23 be c9 17 1c be
       -0.15928915 -0.15243448
